…
Start Tensorboard with "tensorboard --logdir=runs", view at http://localhost:6006/
Model Summary: 37 layers, 8.67912e+06 parameters, 8.67912e+06 gradients
Optimizer groups: 13 .bias, 13 Conv2d.weight, 11 other
Caching labels: 0it [00:00, ?it/s]Caching labels: 4122it [00:00, 41216.40it/s]Caching labels: 7471it [00:00, 41100.19it/s]
Caching labels: 0it [00:00, ?it/s]Caching labels: 600it [00:00, 37874.67it/s]single-gpu sparse
Image sizes 384 - 384 train, 384 test
Using 8 dataloader workers
Starting training for 30 epochs...
Darknet(
  (module_list): ModuleList(
    (0): Sequential(
      (Conv2d): Conv2d(3, 16, kernel_size=(3, 3), stride=(1, 1), padding=(1, 1), bias=False)
      (BatchNorm2d): BatchNorm2d(16, eps=1e-05, momentum=0.1, affine=True, track_running_stats=True)
      (activation): LeakyReLU(negative_slope=0.1, inplace=True)
    )
    (1): MaxPool2d(kernel_size=2, stride=2, padding=0, dilation=1, ceil_mode=False)
    (2): Sequential(
      (Conv2d): Conv2d(16, 32, kernel_size=(3, 3), stride=(1, 1), padding=(1, 1), bias=False)
      (BatchNorm2d): BatchNorm2d(32, eps=1e-05, momentum=0.1, affine=True, track_running_stats=True)
      (activation): LeakyReLU(negative_slope=0.1, inplace=True)
    )
    (3): MaxPool2d(kernel_size=2, stride=2, padding=0, dilation=1, ceil_mode=False)
    (4): Sequential(
      (Conv2d): Conv2d(32, 64, kernel_size=(3, 3), stride=(1, 1), padding=(1, 1), bias=False)
      (BatchNorm2d): BatchNorm2d(64, eps=1e-05, momentum=0.1, affine=True, track_running_stats=True)
      (activation): LeakyReLU(negative_slope=0.1, inplace=True)
    )
    (5): MaxPool2d(kernel_size=2, stride=2, padding=0, dilation=1, ceil_mode=False)
    (6): Sequential(
      (Conv2d): Conv2d(64, 128, kernel_size=(3, 3), stride=(1, 1), padding=(1, 1), bias=False)
      (BatchNorm2d): BatchNorm2d(128, eps=1e-05, momentum=0.1, affine=True, track_running_stats=True)
      (activation): LeakyReLU(negative_slope=0.1, inplace=True)
    )
    (7): MaxPool2d(kernel_size=2, stride=2, padding=0, dilation=1, ceil_mode=False)
    (8): Sequential(
      (Conv2d): Conv2d(128, 256, kernel_size=(3, 3), stride=(1, 1), padding=(1, 1), bias=False)
      (BatchNorm2d): BatchNorm2d(256, eps=1e-05, momentum=0.1, affine=True, track_running_stats=True)
      (activation): LeakyReLU(negative_slope=0.1, inplace=True)
    )
    (9): MaxPool2d(kernel_size=2, stride=2, padding=0, dilation=1, ceil_mode=False)
    (10): Sequential(
      (Conv2d): Conv2d(256, 512, kernel_size=(3, 3), stride=(1, 1), padding=(1, 1), bias=False)
      (BatchNorm2d): BatchNorm2d(512, eps=1e-05, momentum=0.1, affine=True, track_running_stats=True)
      (activation): LeakyReLU(negative_slope=0.1, inplace=True)
    )
    (11): Sequential(
      (ZeroPad2d): ZeroPad2d(padding=(0, 1, 0, 1), value=0.0)
      (MaxPool2d): MaxPool2d(kernel_size=2, stride=1, padding=0, dilation=1, ceil_mode=False)
    )
    (12): Sequential(
      (Conv2d): Conv2d(512, 1024, kernel_size=(3, 3), stride=(1, 1), padding=(1, 1), bias=False)
      (BatchNorm2d): BatchNorm2d(1024, eps=1e-05, momentum=0.1, affine=True, track_running_stats=True)
      (activation): LeakyReLU(negative_slope=0.1, inplace=True)
    )
    (13): Sequential(
      (Conv2d): Conv2d(1024, 256, kernel_size=(1, 1), stride=(1, 1), bias=False)
      (BatchNorm2d): BatchNorm2d(256, eps=1e-05, momentum=0.1, affine=True, track_running_stats=True)
      (activation): LeakyReLU(negative_slope=0.1, inplace=True)
    )
    (14): Sequential(
      (Conv2d): Conv2d(256, 512, kernel_size=(3, 3), stride=(1, 1), padding=(1, 1), bias=False)
      (BatchNorm2d): BatchNorm2d(512, eps=1e-05, momentum=0.1, affine=True, track_running_stats=True)
      (activation): LeakyReLU(negative_slope=0.1, inplace=True)
    )
    (15): Sequential(
      (Conv2d): Conv2d(512, 30, kernel_size=(1, 1), stride=(1, 1))
    )
    (16): YOLOLayer()
    (17): FeatureConcat()
    (18): Sequential(
      (Conv2d): Conv2d(256, 128, kernel_size=(1, 1), stride=(1, 1), bias=False)
      (BatchNorm2d): BatchNorm2d(128, eps=1e-05, momentum=0.1, affine=True, track_running_stats=True)
      (activation): LeakyReLU(negative_slope=0.1, inplace=True)
    )
    (19): Upsample(scale_factor=2.0, mode=nearest)
    (20): FeatureConcat()
    (21): Sequential(
      (Conv2d): Conv2d(384, 256, kernel_size=(3, 3), stride=(1, 1), padding=(1, 1), bias=False)
      (BatchNorm2d): BatchNorm2d(256, eps=1e-05, momentum=0.1, affine=True, track_running_stats=True)
      (activation): LeakyReLU(negative_slope=0.1, inplace=True)
    )
    (22): Sequential(
      (Conv2d): Conv2d(256, 30, kernel_size=(1, 1), stride=(1, 1))
    )
    (23): YOLOLayer()
  )
)
Epoch: 0

               Class    Images   Targets         P         R   mAP@0.5        F1:   0%|          | 0/38 [00:00<?, ?it/s]Darknet(
  (module_list): ModuleList(
    (0): Sequential(
      (Conv2d): Conv2d(3, 16, kernel_size=(3, 3), stride=(1, 1), padding=(1, 1), bias=False)
      (BatchNorm2d): BatchNorm2d(16, eps=1e-05, momentum=0.1, affine=True, track_running_stats=True)
      (activation): LeakyReLU(negative_slope=0.1, inplace=True)
    )
    (1): MaxPool2d(kernel_size=2, stride=2, padding=0, dilation=1, ceil_mode=False)
    (2): Sequential(
      (Conv2d): Conv2d(16, 32, kernel_size=(3, 3), stride=(1, 1), padding=(1, 1), bias=False)
      (BatchNorm2d): BatchNorm2d(32, eps=1e-05, momentum=0.1, affine=True, track_running_stats=True)
      (activation): LeakyReLU(negative_slope=0.1, inplace=True)
    )
    (3): MaxPool2d(kernel_size=2, stride=2, padding=0, dilation=1, ceil_mode=False)
    (4): Sequential(
      (Conv2d): Conv2d(32, 64, kernel_size=(3, 3), stride=(1, 1), padding=(1, 1), bias=False)
      (BatchNorm2d): BatchNorm2d(64, eps=1e-05, momentum=0.1, affine=True, track_running_stats=True)
      (activation): LeakyReLU(negative_slope=0.1, inplace=True)
    )
    (5): MaxPool2d(kernel_size=2, stride=2, padding=0, dilation=1, ceil_mode=False)
    (6): Sequential(
      (Conv2d): Conv2d(64, 128, kernel_size=(3, 3), stride=(1, 1), padding=(1, 1), bias=False)
      (BatchNorm2d): BatchNorm2d(128, eps=1e-05, momentum=0.1, affine=True, track_running_stats=True)
      (activation): LeakyReLU(negative_slope=0.1, inplace=True)
    )
    (7): MaxPool2d(kernel_size=2, stride=2, padding=0, dilation=1, ceil_mode=False)
    (8): Sequential(
      (Conv2d): Conv2d(128, 256, kernel_size=(3, 3), stride=(1, 1), padding=(1, 1), bias=False)
      (BatchNorm2d): BatchNorm2d(256, eps=1e-05, momentum=0.1, affine=True, track_running_stats=True)
      (activation): LeakyReLU(negative_slope=0.1, inplace=True)
    )
    (9): MaxPool2d(kernel_size=2, stride=2, padding=0, dilation=1, ceil_mode=False)
    (10): Sequential(
      (Conv2d): Conv2d(256, 512, kernel_size=(3, 3), stride=(1, 1), padding=(1, 1), bias=False)
      (BatchNorm2d): BatchNorm2d(512, eps=1e-05, momentum=0.1, affine=True, track_running_stats=True)
      (activation): LeakyReLU(negative_slope=0.1, inplace=True)
    )
    (11): Sequential(
      (ZeroPad2d): ZeroPad2d(padding=(0, 1, 0, 1), value=0.0)
      (MaxPool2d): MaxPool2d(kernel_size=2, stride=1, padding=0, dilation=1, ceil_mode=False)
    )
    (12): Sequential(
      (Conv2d): Conv2d(512, 1024, kernel_size=(3, 3), stride=(1, 1), padding=(1, 1), bias=False)
      (BatchNorm2d): BatchNorm2d(1024, eps=1e-05, momentum=0.1, affine=True, track_running_stats=True)
      (activation): LeakyReLU(negative_slope=0.1, inplace=True)
    )
    (13): Sequential(
      (Conv2d): Conv2d(1024, 256, kernel_size=(1, 1), stride=(1, 1), bias=False)
      (BatchNorm2d): BatchNorm2d(256, eps=1e-05, momentum=0.1, affine=True, track_running_stats=True)
      (activation): LeakyReLU(negative_slope=0.1, inplace=True)
    )
    (14): Sequential(
      (Conv2d): Conv2d(256, 512, kernel_size=(3, 3), stride=(1, 1), padding=(1, 1), bias=False)
      (BatchNorm2d): BatchNorm2d(512, eps=1e-05, momentum=0.1, affine=True, track_running_stats=True)
      (activation): LeakyReLU(negative_slope=0.1, inplace=True)
    )
    (15): Sequential(
      (Conv2d): Conv2d(512, 30, kernel_size=(1, 1), stride=(1, 1))
    )
    (16): YOLOLayer()
    (17): FeatureConcat()
    (18): Sequential(
      (Conv2d): Conv2d(256, 128, kernel_size=(1, 1), stride=(1, 1), bias=False)
      (BatchNorm2d): BatchNorm2d(128, eps=1e-05, momentum=0.1, affine=True, track_running_stats=True)
      (activation): LeakyReLU(negative_slope=0.1, inplace=True)
    )
    (19): Upsample(scale_factor=2.0, mode=nearest)
    (20): FeatureConcat()
    (21): Sequential(
      (Conv2d): Conv2d(384, 256, kernel_size=(3, 3), stride=(1, 1), padding=(1, 1), bias=False)
      (BatchNorm2d): BatchNorm2d(256, eps=1e-05, momentum=0.1, affine=True, track_running_stats=True)
      (activation): LeakyReLU(negative_slope=0.1, inplace=True)
    )
    (22): Sequential(
      (Conv2d): Conv2d(256, 30, kernel_size=(1, 1), stride=(1, 1))
    )
    (23): YOLOLayer()
  )
)
               Class    Images   Targets         P         R   mAP@0.5        F1:   3%|▎         | 1/38 [00:00<00:15,  2.41it/s]               Class    Images   Targets         P         R   mAP@0.5        F1:   5%|▌         | 2/38 [00:00<00:11,  3.12it/s]               Class    Images   Targets         P         R   
…
     F1:  92%|█████████▏| 35/38 [00:03<00:00, 11.89it/s]               Class    Images   Targets         P         R   mAP@0.5        F1:  97%|█████████▋| 37/38 [00:04<00:00, 12.01it/s]               Class    Images   Targets         P         R   mAP@0.5        F1: 100%|██████████| 38/38 [00:04<00:00,  9.17it/s]                 all       600       654     0.361     0.541     0.402     0.433
Epoch: 1

               Class    Images   Targets         P         R   mAP@0.5        F1:   0%|          | 0/38 [00:00<?, ?it/s]Darknet(
  (module_list): ModuleList(
    (0): Sequential(
      (Conv2d): Conv2d(3, 16, kernel_size=(3, 3), stride=(1, 1), padding=(1, 1), bias=False)
      (BatchNorm2d): BatchNorm2d(16, eps=1e-05, momentum=0.1, affine=True, track_running_stats=True)
      (activation): LeakyReLU(negative_slope=0.1, inplace=True)
    )
    (1): MaxPool2d(kernel_size=2, stride=2, padding=0, dilation=1, ceil_mode=False)
    (2): Sequential(
      (Conv2d): Conv2d(16, 32, kernel_size=(3, 3), stride=(1, 1), padding=(1, 1), bias=False)
      (BatchNorm2d): BatchNorm2d(32, eps=1e-05, momentum=0.1, affine=True, track_running_stats=True)
      (activation): LeakyReLU(negative_slope=0.1, inplace=True)
    )
    (3): MaxPool2d(kernel_size=2, stride=2, padding=0, dilation=1, ceil_mode=False)
    (4): Sequential(
      (Conv2d): Conv2d(32, 64, kernel_size=(3, 3), stride=(1, 1), padding=(1, 1), bias=False)
      (BatchNorm2d): BatchNorm2d(64, eps=1e-05, momentum=0.1, affine=True, track_running_stats=True)
      (activation): LeakyReLU(negative_slope=0.1, inplace=True)
    )
    (5): MaxPool2d(kernel_size=2, stride=2, padding=0, dilation=1, ceil_mode=False)
    (6): Sequential(
      (Conv2d): Conv2d(64, 128, kernel_size=(3, 3), stride=(1, 1), padding=(1, 1), bias=False)
      (BatchNorm2d): BatchNorm2d(128, eps=1e-05, momentum=0.1, affine=True, track_running_stats=True)
      (activation): LeakyReLU(negative_slope=0.1, inplace=True)
    )
    (7): MaxPool2d(kernel_size=2, stride=2, padding=0, dilation=1, ceil_mode=False)
    (8): Sequential(
      (Conv2d): Conv2d(128, 256, kernel_size=(3, 3), stride=(1, 1), padding=(1, 1), bias=False)
      (BatchNorm2d): BatchNorm2d(256, eps=1e-05, momentum=0.1, affine=True, track_running_stats=True)
      (activation): LeakyReLU(negative_slope=0.1, inplace=True)
    )
    (9): MaxPool2d(kernel_size=2, stride=2, padding=0, dilation=1, ceil_mode=False)
    (10): Sequential(
      (Conv2d): Conv2d(256, 512, kernel_size=(3, 3), stride=(1, 1), padding=(1, 1), bias=False)
      (BatchNorm2d): BatchNorm2d(512, eps=1e-05, momentum=0.1, affine=True, track_running_stats=True)
      (activation): LeakyReLU(negative_slope=0.1, inplace=True)
    )
    (11): Sequential(
      (ZeroPad2d): ZeroPad2d(padding=(0, 1, 0, 1), value=0.0)
      (MaxPool2d): MaxPool2d(kernel_size=2, stride=1, padding=0, dilation=1, ceil_mode=False)
    )
    (12): Sequential(
      (Conv2d): Conv2d(512, 1024, kernel_size=(3, 3), stride=(1, 1), padding=(1, 1), bias=False)
      (BatchNorm2d): BatchNorm2d(1024, eps=1e-05, momentum=0.1, affine=True, track_running_stats=True)
      (activation): LeakyReLU(negative_slope=0.1, inplace=True)
    )
    (13): Sequential(
      (Conv2d): Conv2d(1024, 256, kernel_size=(1, 1), stride=(1, 1), bias=False)
      (BatchNorm2d): BatchNorm2d(256, eps=1e-05, momentum=0.1, affine=True, track_running_stats=True)
      (activation): LeakyReLU(negative_slope=0.1, inplace=True)
    )
    (14): Sequential(
      (Conv2d): Conv2d(256, 512, kernel_size=(3, 3), stride=(1, 1), padding=(1, 1), bias=False)
      (BatchNorm2d): BatchNorm2d(512, eps=1e-05, momentum=0.1, affine=True, track_running_stats=True)
      (activation): LeakyReLU(negative_slope=0.1, inplace=True)
    )
    (15): Sequential(
      (Conv2d): Conv2d(512, 30, kernel_size=(1, 1), stride=(1, 1))
    )
    (16): YOLOLayer()
    (17): FeatureConcat()
    (18): Sequential(
      (Conv2d): Conv2d(256, 128, kernel_size=(1, 1), stride=(1, 1), bias=False)
      (BatchNorm2d): BatchNorm2d(128, eps=1e-05, momentum=0.1, affine=True, track_running_stats=True)
      (activation): LeakyReLU(negative_slope=0.1, inplace=True)
    )
    (19): Upsample(scale_factor=2.0, mode=nearest)
    (20): FeatureConcat()
    (21): Sequential(
      (Conv2d): Conv2d(384, 256, kernel_size=(3, 3), stride=(1, 1), padding=(1, 1), bias=False)
      (BatchNorm2d): BatchNorm2d(256, eps=1e-05, momentum=0.1, affine=True, track_running_stats=True)
      (activation): LeakyReLU(negative_slope=0.1, inplace=True)
    )
    (22): Sequential(
      (Conv2d): Conv2d(256, 30, kernel_size=(1, 1), stride=(1, 1))
    )
    (23): YOLOLayer()
  )
)
               Class    Images   Targets         P         R   mAP@0.5        F1:   3%|▎         | 1/38 [00:00<00:07,  4.78it/s]               Class    Images   Targets         P         R   mAP@0.5        F1:   8%|▊         | 3/38 [00:00<00:03,  8.88it/s]               Class    Images   Targets         P         R   
…
